data.pth (torch, 5015 bytes, 6 tensors)

l1.weight f4 [8, 51]
0	0x3e8e52a2	0.2779742
1	0x3e147c60	0.1450057
2	0x3e3bd46f	0.18342756
3	0x3f075727	0.5286736
4	0x3f2ba942	0.6705514
5	0xbeffbee6	-0.4995033
6	0xbeec9b28	-0.46212125
7	0xbe9d0083	-0.30664453
8	0x3f2e0756	0.67979944
9	0xbeba8a84	-0.36433804
10	0x3f5ead0e	0.8698281
11	0x3f07d9c1	0.5306664
12	0x3edfd4a2	0.43716913
13	0x3e0a61e6	0.13513908
14	0x3e6f68ed	0.2337987
15	0xbe10f612	-0.14156368
16	0x3edce4c7	0.43143293
17	0x3f399e45	0.72507125
18	0x3f21ba1f	0.63174623
19	0xbe670192	-0.22559193
20	0xbeebff1f	-0.4609308
21	0x3def51ed	0.11685548
22	0x3f0d904a	0.5529829
23	0x3f2faade	0.686201
24	0xbecbbda7	-0.3979313
25	0x3e2989f6	0.16556534
26	0x3f100bb0	0.56267834
27	0xbed84808	-0.42242455
28	0xbed41a7f	-0.41426465
29	0x3f794858	0.9737601
30	0x3f05ad31	0.52217394
31	0x3ea7821e	0.3271646
32	0x3f2ea1e7	0.68215793
33	0x3e8ae9d2	0.27131516
34	0x3ebc51ca	0.3678115
35	0x3dfbfb1b	0.12303754
36	0xbee7938c	-0.45229757
37	0x3f20b8fd	0.6278227
38	0xbef89061	-0.48547652
39	0x3f03811f	0.513689
40	0x3e2b3a9c	0.16721576
41	0x3efe9c37	0.49728557
42	0xbea18364	-0.31545556
43	0x3ef7c03c	0.4838885
44	0x3e98b7ad	0.29827634
45	0x3d0d405e	0.034485213
46	0x3f0a801b	0.54101723
47	0x3f4b991e	0.79530513
48	0x3e21c7cb	0.15798871
49	0x3e126b15	0.14298661
50	0x3e8ca9fe	0.27473444
51	0xbf395544	-0.7239573
52	0x3f434a46	0.7628521
53	0x3bcdc960	0.0062801093
54	0xbda9040f	-0.08252727
55	0x3f41e71b	0.75743264
56	0x3ee8fec5	0.45506874
57	0x3f532f00	0.8249359
58	0x3f605d7f	0.87642664
59	0x3f0ceb81	0.5504685
60	0x3f3407e5	0.70324546
61	0xbf8774e4	-1.0582547
62	0xbebbb693	-0.3666273
63	0x3ee1af90	0.44079256
64	0xbd65dc97	-0.056118574
65	0xbd792540	-0.06082654
66	0x3f69576d	0.91149026
67	0xbed77dfd	-0.4208831
68	0x3f326afc	0.69694495
69	0x3d9ed4ce	0.07755433
70	0x3f227ed8	0.634748
71	0x3f6e67dd	0.9312723
72	0xbe0717da	-0.13192692
73	0x3ef913c5	0.48647895
74	0xbf71dc08	-0.94476366
75	0x3f4c7385	0.7986377
76	0x3ebbdb5d	0.36690798
77	0x3f252ef5	0.64524776
78	0x3f5b4422	0.8565084
79	0x3f7630c0	0.96168137
80	0x3e9a2334	0.30104983
81	0xbe72b444	-0.23701578
82	0xbed89537	-0.42301342
83	0x3f5628ff	0.83656305
84	0x3c996328	0.01872404
85	0xbd258341	-0.040408377
86	0x3f14a7e8	0.58068705
87	0x3ef5f5b1	0.4803901
88	0xbf3b3c7c	-0.73139167
89	0x3f613fc0	0.879879
90	0xbece2296	-0.40260762
91	0xbdce7e54	-0.10082689
92	0xbeeb833d	-0.45998564
93	0x3f52e5b6	0.8238176
94	0xbe268d89	-0.16264929
95	0xbf7127cb	-0.94201344
96	0xbf15ba8a	-0.5848776
97	0x3f1ce181	0.6128159
98	0x3f2cf851	0.675664
99	0xbd808ad4	-0.06276479
100	0xbd7f3404	-0.062305465
101	0xbde3669f	-0.11103558
102	0x3eedb796	0.46429127
103	0xbe8d8d4e	-0.2764687
104	0x3d8160b0	0.0631727
105	0x3e12b6a2	0.14327481
106	0xbe243bf5	-0.16038497
107	0x3e831d9c	0.25608528
108	0x3ebed2d8	0.37270236
109	0x3ea8535c	0.32876098
110	0x3f0bf52b	0.5467097
111	0xbe5e2e59	-0.21697368
112	0xbf4a8f11	-0.7912455
113	0xbe9305a8	-0.28715253
114	0xbe39fd84	-0.18163115
115	0x3ed50045	0.41601768
116	0x3e95db27	0.29268762
117	0x3f05f24b	0.52322835
118	0xbeb676b6	-0.35637444
119	0x3f19ba16	0.6004957
120	0x3d039c3f	0.03213143
121	0xbe57f07b	-0.2108783
122	0x3f06216e	0.5239476
123	0x3f0bdc14	0.5463269
124	0x3eeaba12	0.45845085
125	0x3f35eb04	0.7106173
126	0xbedaf34f	-0.42763755
127	0xbbdde7f3	-0.0067720353
128	0xbd9673c8	-0.07346302
129	0xbedaeaf5	-0.42757383
130	0xbedae780	-0.42754745
131	0x3d3be6a3	0.04587425
132	0xbe576abe	-0.21036813
133	0xbdefd928	-0.11711341
134	0xbe2075e6	-0.15669975
135	0x3d755d60	0.059903502
136	0x3f2ff864	0.6873839
137	0xbe42ceb8	-0.1902417
138	0x3e05b818	0.13058507
139	0xbef27637	-0.47355816
140	0x3eb8dfc3	0.36108217
141	0xbe0295fc	-0.12752527
142	0x3eb0faca	0.34566337
143	0xbede21c0	-0.43385124
144	0x3e992f1a	0.29918748
145	0x3e12f6c8	0.14351952
146	0x3f394384	0.72368646
147	0x3eefae73	0.46812782
148	0xbc81fdc3	-0.015868073
149	0xbde3bc08	-0.111198485
150	0x3f2de796	0.679315
151	0x3f2f1eca	0.68406355
152	0x3e1cda65	0.15317686
153	0x3f2938cf	0.6610231
154	0xbf161ac9	-0.5863462
155	0x3ea12e07	0.3148043
156	0x3e8d9b1a	0.27657396
157	0xbe37724b	-0.17914693
158	0xbf28d906	-0.6595615
159	0xbf02251e	-0.50837886
160	0xbf2f57ea	-0.6849352
161	0x3f3711ad	0.71511346
162	0x3e9f55e2	0.3112021
163	0x3f069b94	0.52581143
164	0x3e8b4e1b	0.27208027
165	0xbe82d8d2	-0.25556046
166	0x3cb65356	0.022256535
167	0xbda45d59	-0.08025617
168	0x3f226f3e	0.6345099
169	0x3f034a41	0.5128518
170	0x3f5973b1	0.84942156
171	0x3e8220a9	0.25415543
172	0x3e918325	0.28420368
173	0xbeff28b1	-0.49835733
174	0x3c8be362	0.017076198
175	0x3e1cc932	0.15311125
176	0xbf233867	-0.6375794
177	0x3da7ad5e	0.08187364
178	0x3e30ad68	0.17253649
179	0xbcbfca83	-0.023411995
180	0x3e15c31c	0.1462521
181	0x3e3a5826	0.18197688
182	0x3f133d98	0.5751586
183	0x3e897082	0.2684365
184	0x3ecbdb26	0.39815634
185	0xbe70b10e	-0.23505041
186	0x3f045793	0.5169613
187	0xbe84b7d1	-0.2592149
188	0xbebd6e3e	-0.3699817
189	0xbf574aaa	-0.84098303
190	0x3f063986	0.52431524
191	0xbf5cac07	-0.8619999
192	0x3e81f508	0.25382257
193	0xbd580ba0	-0.05274546
194	0x3e26ee0f	0.1630175
195	0xbf2f595b	-0.6849572
196	0x3eaf52d7	0.3424289
197	0x3f8a7eea	1.0819981
198	0x3f3854bd	0.720043
199	0xbd120d05	-0.035656948
200	0xbe6c1e82	-0.23058513
201	0xbe5b6cad	-0.21428175
202	0xbe769d1d	-0.24083371
203	0x3f152c69	0.5827089
204	0xbde83cbc	-0.11339709
205	0x3b6b2a00	0.0035883188
206	0xbdad6219	-0.08465976
207	0xbca5a854	-0.020221867
208	0xbde5186f	-0.11186301
209	0x3d60589c	0.054772004
210	0xbe0537f9	-0.13009633
211	0x3d7fdcdc	0.062466487
212	0xbda538c8	-0.08067471
213	0xbde6b089	-0.1126414
214	0xbd9062bd	-0.07050083
215	0xbe00c636	-0.12575611
216	0xbd47ab8c	-0.048747584
217	0xbb8d4940	-0.0043117106
218	0xbc8c6dac	-0.01714214
219	0x3dd1b00c	0.102386564
220	0xbde6f1e0	-0.11276603
221	0xbd817cbf	-0.063226216
222	0xbc792798	-0.015207194
223	0xbdea8f95	-0.11453167
224	0x3d03bc6c	0.032162115
225	0xbcb97eb8	-0.022643432
226	0xbd06b860	-0.032890677
227	0xbb922040	-0.004459411
228	0xbce781c4	-0.02826012
229	0xbd670fa6	-0.056411408
230	0xbc9d8fc4	-0.019233592
231	0xbd558938	-0.052132815
232	0xbd74658c	-0.059667155
233	0xbdc89fa4	-0.09796074
234	0xbdcc69a2	-0.09981085
235	0x3dde2aa2	0.10847975
236	0x3e0da67f	0.13833044
237	0xbe07f7fb	-0.13278191
238	0xbabe4180	-0.001451537
239	0x3d8f08c6	0.06984095
240	0x3d81eaa0	0.06343579
241	0x3d29eea8	0.041487366
242	0x3cb4eec0	0.022086501
243	0xbdfec83c	-0.124405354
244	0xbdb8e066	-0.090271756
245	0xbe0c3e2e	-0.13695595
246	0xbd9cde23	-0.07659557
247	0xbe001360	-0.12507391
248	0xbd9c194b	-0.07622012
249	0x3db9fb5c	0.09081146
250	0xbdf88af4	-0.12135878
251	0xbda48a1c	-0.08034155
252	0x3da994b8	0.08280319
253	0x3cfaa990	0.030598432
254	0x3d86538e	0.065589055
255	0xbece1edb	-0.40257916

l1.bias f4 [8]
0	0x3f17250b	0.590409
1	0x3f712120	0.9419117
2	0x3edae420	0.4275217
3	0x3f519277	0.8186411
4	0xbe07555c	-0.13216156
5	0x3f08ed36	0.53486955
6	0x3e960c68	0.2930634
7	0x3f3a48e7	0.7276749

l2.weight f4 [8, 8]
0	0xbe66668a	-0.22500053
1	0x3fac501f	1.3461951
2	0xbe441eee	-0.19152424
3	0xbeae7095	-0.34070268
4	0xbe2eba97	-0.17063366
5	0x3f28c76a	0.6592928
6	0xbfa29bde	-1.2703817
7	0x3f2703ec	0.6524036
8	0x3ed52c91	0.41635564
9	0x3eb1db0f	0.3473744
10	0xbe120c8f	-0.14262603
11	0x3fb295a0	1.3951912
12	0xbdfb67e8	-0.12275678
13	0xbf3825bc	-0.7193258
14	0xbf3b6b25	-0.73210365
15	0x3e838621	0.2568827
16	0x3fb007d0	1.3752384
17	0x3f321cac	0.69575
18	0xbf76186d	-0.9613102
19	0x3ef40f67	0.47668
20	0x3e7c5c9e	0.24644706
21	0x3fb11cbb	1.3836893
22	0x3e8c442c	0.2739576
23	0xbf8d8b63	-1.1058162
24	0x3f421788	0.75817156
25	0xbfbe47a7	-1.4865617
26	0xbf1a2fc6	-0.60229146
27	0x3f17059d	0.5899294
28	0xbe4130fb	-0.18866341
29	0x3f9249e5	1.1428801
30	0x3d9e6206	0.0773354
31	0x3ec0a0e3	0.37622747
32	0x3ec4eeaf	0.3846335
33	0xbd839c7a	-0.0642633
34	0x3fb3bd71	1.4042188
35	0xbeb92cf8	-0.3616712
36	0x3df3d374	0.11905566
37	0x3f0206d5	0.50791675
38	0x3e8bb111	0.27283528
39	0x3fbefdad	1.4921166
40	0x3f84b765	1.0368468
41	0xbf2ccab6	-0.6749681
42	0x3f90e999	1.1321288
43	0x3f949597	1.1608151
44	0xbd569b48	-0.05239418
45	0xbf48c309	-0.784226
46	0x3e49df77	0.19714151
47	0x3f96b60f	1.177431
48	0xbeb20d31	-0.3477569
49	0x3cca7c70	0.02471754
50	0xbe40b972	-0.18820742
51	0xbe51c334	-0.2048462
52	0x3e284d62	0.16435769
53	0xbb83c640	-0.004021436
54	0xbe8c15fb	-0.2736052
55	0xbe0e51b8	-0.1389836
56	0x3f93a002	1.1533206
57	0x3f0555ea	0.5208422
58	0xbea0a0a1	-0.3137255
59	0x3eb2515b	0.34827694
60	0x3e6ccc2a	0.23124757
61	0x3f1d11cf	0.613553
62	0x3fa8d733	1.3190674
63	0xbf5301e3	-0.82424754

l2.bias f4 [8]
0	0x3f80ede9	1.0072604
1	0x3f705ebf	0.9389457
2	0x3f1e1bfa	0.6176144
3	0xbe8d339d	-0.2757844
4	0xbe918c3d	-0.28427306
5	0x3e6bed5b	0.23039763
6	0xbe8a816a	-0.2705186
7	0xbeecdee1	-0.46263793

l3.weight f4 [9, 8]
0	0x3f1c33d5	0.6101659
1	0xbfbb99ba	-1.4656289
2	0x3e0afb42	0.1357241
3	0xbed20688	-0.41020608
4	0x3dc5c182	0.09656049
5	0xbf57cb1e	-0.8429431
6	0xbd12a268	-0.035799414
7	0xbe8ff53f	-0.28116795
8	0xbfdde5cd	-1.7335755
9	0x3d351746	0.04421165
10	0x3e957201	0.2918854
11	0x3f43e449	0.7652021
12	0xbf8f38d9	-1.1189224
13	0xbe16de7e	-0.14733312
14	0xbdfa0852	-0.12208618
15	0x3f06a535	0.52595836
16	0xbf050c60	-0.5197201
17	0x3f417bbe	0.7557944
18	0x3d0a3232	0.033739276
19	0xbf0d0d41	-0.5509835
20	0xbf79a7fb	-0.9752194
21	0x3eb83996	0.35981435
22	0x3e8fadbb	0.28062233
23	0x3e1dd923	0.15414862
24	0x3f838b72	1.027693
25	0x3dcece83	0.10097983
26	0xbfa5ea65	-1.2962157
27	0xbf56ab90	-0.83855534
28	0x3ea51ebc	0.3225001
29	0xbe4b2435	-0.1983803
30	0x3e89f335	0.26943365
31	0xbfffdbb8	-1.9988928
32	0x3f7e28d6	0.9928106
33	0x3f237b61	0.63860136
34	0x3f163c02	0.58685315
35	0xbf62e42b	-0.88629407
36	0xbffe7afd	-1.9881283
37	0xbf4ee861	-0.8082333
38	0x3ea11fb1	0.3146949
39	0xbf054383	-0.5205614
40	0xbedd619c	-0.43238533
41	0xbf076473	-0.5288765
42	0xbddbc039	-0.10730023
43	0x3f3ddbef	0.7416372
44	0x3e871c91	0.26388982
45	0xba2a6871	-0.00065005483
46	0x3d634e40	0.055494547
47	0xbee7edf8	-0.45298743
48	0xbdbe94a6	-0.09305696
49	0xbf98df9a	-1.1943238
50	0x3f0816d3	0.53159827
51	0xbf869fa1	-1.0517465
52	0xbf8d0a2d	-1.101873
53	0xbf39925e	-0.72488964
54	0xbe8c58f6	-0.27411622
55	0x3f48a78e	0.7838067
56	0xbf9c51a1	-1.2212411
57	0xbfa0a91b	-1.2551607
58	0xbf5ac1db	-0.8545205
59	0xbf42d4f4	-0.7610619
60	0x3f42482c	0.75891376
61	0x3ed95e69	0.42454842
62	0x3e96cd65	0.2945358
63	0xbf788fa6	-0.9709419
64	0xbf8db54b	-1.1070951
65	0x3f8251fc	1.018127
66	0xbf854fed	-1.0415016
67	0x3e28fb21	0.16502048
68	0xbdd84c6d	-0.10561452
69	0x3f135caf	0.575633
70	0x3e464ba2	0.19364789
71	0xbfe7c423	-1.8106731

l3.bias f4 [9]
0	0x3e5d4749	0.21609224
1	0xbc576198	-0.013145827
2	0xbedc7766	-0.43059844
3	0x3eb09192	0.3448606
4	0x3e8b9520	0.2726221
5	0xbf25cd00	-0.6476593
6	0xbe9dc56d	-0.30814686
7	0x3ec8d0a8	0.39221692
8	0x3e141bad	0.14463682
